model.pth (torch, 118132 bytes, 6 tensors)

conv1.0.weight f4 [16, 1, 5, 5]
00000000: b04c f0bf a1c2 1abf 6cd7 91bf 33b9 adbf
00000010: 0306 5bbf f52b 40bf a7ee 0fbf 5725 a0be
00000020: ae23 f0bd 1406 f8bf 27c6 e2bf 450d 1cbd
00000030: 9c95 333f 47ca fb3e db91 76bf c1a2 b2bf
00000040: a546 ce3e 3824 043f 5578 95be 73a3 c2be
00000050: 9c3a 77bf 6ce9 1a3f 3d6e 8e3e 01fe 94be
00000060: 8721 5fbe 4649 e63d 77ca 02bc 8bc2 ebbd
00000070: 903b 823d 1033 3fbe f972 6bbe 3e24 d6bd
00000080: 5e13 7bbe 275e 9e3b d46e 0b3e 905e 843c
00000090: a61f 95bd 9d18 f83d b018 f7bd b776 b0bd
000000a0: c11b 2cbd 81da a5bd 95bc 413c c79a 78be
000000b0: 141a edbd b5f2 26bd f406 9fbd f54a 21be
000000c0: 1fc4 75be a3ed d7bd 5bf7 3b3f d98f 2b3d
000000d0: 624f 6bbd 9420 303d 7bb2 603f 94d3 c0be
000000e0: 2996 883e fdd0 ae3e 4a85 a13e 3ed9 e13e
000000f0: 65fe 1c3d 23b1 13bd 6fc8 b93d 90fb 623d
00000100: 1e30 07bf a6bf 0ebf 1656 ca3e ce4e acbe
00000110: 9397 adbf c2a3 97bf 7486 afbf ab65 b5bf
00000120: a69e 92bf dc35 9b3d d1dc 833f cf64 4d3d
00000130: bdfb 923e 4130 783c 994e c3be 6bd8 9d3d
00000140: ea3f 283f 6e17 93bd cd5f 10bf 804d c6bf
00000150: 6071 95be d98c e13b 72ab 0e3e 27cc 2c3d
00000160: 0fe2 21c0 0692 b83d 2291 c9be 6018 bbbe
00000170: e087 1dbf 17c8 3e3d 882f 6fbe a04f 5abf
00000180: 87b7 75bf 5f2b a0be 366e 88bf 4010 f5bd
00000190: beb3 a7bf 77bf 08c0 bd2a cdbf c531 36bf
000001a0: 11b0 b8bf 4c55 c3be df65 78bf 668a 2b3e
000001b0: e87b 45be 5a7b cabc 718b f1bf aeeb 28bf
000001c0: 381b da3e 7e86 923e 6e60 583f d396 2dbf
000001d0: c996 10bf 0422 36bf 905b 09bf 0aba 8b3e
000001e0: de27 5abf 52f4 dabf 59db c3bf cf6d babf
000001f0: 3996 81bf fb74 fb3e d8f1 c5bd 7b35 6e3e
00000200: 8611 be3d 36b1 db3e 854b 00be 421c 24be
00000210: 4565 a2bc 4df0 cebd 24f8 ccbf f5e4 bdbe
00000220: 57df 023e cd96 da3e 7d13 453d 06fe 8cbe
00000230: 54ed ccbf a512 93be 9b52 3a3f 01a1 173f
00000240: 9e26 833d 0111 503e 0b71 4abf c88a 12bf
00000250: 3c51 67bd 8cac 103f 183e 86bf b90d c7be
00000260: 5a3b 1bbd 906d 563e feb0 543f c5a6 0cbf
00000270: 5e02 49bf 3962 c7bf 4a39 b4bf f50d 1cbc
00000280: a1f5 04be 211f 563e 758a e93e 3206 09bf
00000290: 4712 2cbf f6dd 113e d003 aabd 7e3e b83d
000002a0: 813a 35be 4fdd 92be 1770 05bf 2e95 463e
000002b0: 14d8 243f aaeb a23e 9488 543f 21df 30be
000002c0: 6316 1bbf 1894 673e 27fe 0bbe 5264 11bf
000002d0: 42ee 063c d00c eebe 1993 e53c 34bf a6be
000002e0: 41f7 3ebe eaf0 26be 7fa9 21bf cb06 b6be
000002f0: fd4e 84bc 0e2e 093f 329b 1dbe 2561 663e
00000300: eb20 34be dbe5 8ebe 0a09 48b9 6aa2 a03e
00000310: dd0e 7cbd 8379 033e 4233 eabd 285b 98bf
00000320: d5ab b13e ee9e 2cbf d46b 8bbe 2a14 c5bf
00000330: 61ca 03bf e374 bd3e f818 55be 7edd 173e
00000340: f2d0 9cbf 8832 6cbd bb98 9f3e 841c 3a3e
00000350: be1e b4bd b073 94bf 265b a5bd aa0d ac3e
00000360: 868a a93b 3225 babe 9cf4 c2bf 1726 233d
00000370: 9da4 493e 5c5f 60be a9f2 21bf 7039 5bbf
00000380: 64fc 873e 112d c73d 7ac7 a43d 9e93 c8bd
00000390: c877 fb3e bc1d 14bf e435 db3e f906 213e
000003a0: c8eb 533d 61a6 393e f2bc 3dbf efb8 ca3e
000003b0: e5ec 713d 3473 d3be 73a5 2abf 9ccd aa3d
000003c0: 83f7 bc3e 8d73 aa3d 9c0e 19be e726 65be
000003d0: e4a8 b43d 41ee 933e f93e a13e 204f 803e
000003e0: f9e2 b43e 1397 323e 4e9a ccbf 5fe6 363e
000003f0: 22bf 743e a379 3dbc f9ff 0e3e 5e2d 2abf
-1.8773403 -0.6045323 -1.1393867 -1.3572143 -0.8555605 -0.75067073 -0.5622353 -0.31278488
-0.11725555 -1.9376855 -1.7716721 -0.038098592 0.7015016 0.49177763 -0.9631631 -1.3955919
0.40288273 0.51617765 -0.2919337 -0.38015327 -0.96573806 0.60512424 0.2781848 -0.2910004
-0.21790133 0.112444445 -0.007982842 -0.115117155 0.06359017 -0.18671823 -0.22993077 -0.104561314
-0.24519107 0.004833001 0.13616496 0.016158372 -0.07281427 0.121140696 -0.12065256 -0.08616393
-0.042018656 -0.08098317 0.011824747 -0.24277793 -0.1157724 -0.040758807 -0.07764998 -0.1575125
-0.24000596 -0.105433725 0.7342431 0.04188523 -0.057448752 0.04299982 0.8777234 -0.3766142
0.26677063 0.3414382 0.31547004 0.44111055 0.038328547 -0.036057603 0.09071433 0.05541569
-0.52807796 -0.5576118 0.39518803 -0.33653873 -1.3561882 -1.184685 -1.3712907 -1.4171652
-1.1454666 0.07578632 1.0301763 0.050144967 0.28707686 0.015148223 -0.38145903 0.07707294
0.65722525 -0.07182203 -0.5639618 -1.5492401 -0.2918806 0.0068832454 0.13932589 0.042186882
-2.5294225 0.09012227 -0.3936854 -0.36542034 -0.61535454 0.04657754 -0.23357975 -0.8527775
-0.95983166 -0.3128309 -1.0658634 -0.1196599 -1.3101728 -2.136686 -1.6028668 -0.7116969
-1.4428731 -0.38151014 -0.9703044 0.16752014 -0.19285548 -0.024717022 -1.8870679 -0.6598462
0.4259889 0.28618234 0.8452214 -0.67808264 -0.5648008 -0.71145654 -0.5365534 0.27290374
-0.8521708 -1.7105811 -1.5301315 -1.4564761 -1.0123969 0.49112687 -0.09665269 0.23262589
0.09280686 0.4290864 -0.12528808 -0.16026405 -0.01982368 -0.101044275 -1.6013227 -0.37088743
0.1278051 0.42693177 0.04811429 -0.27537555 -1.6009927 -0.28725162 0.72782296 0.5923005
0.0640385 0.20318986 -0.7907874 -0.57243013 -0.056473956 0.56513286 -1.04877 -0.38877657
-0.0378984 0.20940232 0.8308257 -0.5494197 -0.7851924 -1.557685 -1.4079983 -0.009524812
-0.12984325 0.20910312 0.45613447 -0.5352508 -0.6721539 0.14244828 -0.083015084 0.089962944
-0.17698099 -0.2868447 -0.5212416 0.19392845 0.6439221 0.31820422 0.830209 -0.17272617
-0.60581034 0.22615087 -0.1367117 -0.567937 0.008235516 -0.4649415 0.028024243 -0.3256775
-0.18649007 -0.16302839 -0.63149256 -0.35552058 -0.016150946 0.535859 -0.15391234 0.22497995
-0.17590682 -0.2790974 -0.00019076854 0.31373912 -0.061537612 0.12839322 -0.11435558 -1.1902819
0.3470141 -0.6743001 -0.27230704 -1.5396779 -0.5148068 0.3700324 -0.20810306 0.14830586
-1.2251265 -0.057665378 0.31171212 0.1817494 -0.08794926 -1.1597805 -0.08074026 0.33604175
0.005173984 -0.36356503 -1.5230899 0.039831247 0.19691701 -0.21911377 -0.63260895 -0.8563452
0.26559746 0.097253926 0.0804586 -0.09793781 0.49114823 -0.5785787 0.42814553 0.15725316
0.05173853 0.18129875 -0.7411643 0.39594218 0.05906381 -0.4129883 -0.66658705 0.08339998
0.36907586 0.08322821 -0.1494698 -0.22378121 0.08821276 0.2889271 0.31493357 0.25060368
0.35329416 0.17440443 -1.598459 0.17861317 0.23901036 -0.011564645 0.13964833 -0.66475475

conv1.0.bias f4 [16]
00000000: ed38 dbbd b513 8bbe 1e8f 91bf 9744 55be
00000010: dc00 33bd b609 92bf 0c14 74bf d6b4 0ebf
00000020: b36b 87be 962c b6bf 8247 82bf 1024 bebd
00000030: 4f95 53bf ee30 3fbf 6a9e a5bf 2366 febe
-0.10704217 -0.27163473 -1.1371801 -0.20826946 -0.04370199 -1.1409214 -0.9534309 -0.55744684
-0.26449355 -1.4232357 -1.0178072 -0.09284222 -0.826497 -0.74684036 -1.2938969 -0.496873

conv2.0.weight f4 [32, 16, 5, 5]
00000000: fb26 4fbd 5cf6 eebc c3fe 22bc 3b58 1cbd
00000010: c2e3 d0bc 2adb fbbc 64d1 6cbb 63ce c1bd
00000020: 15f0 98bd ba17 5abd b94f 4ebd 9a29 a7bd
00000030: 9d0e 6abd f20a acbd 95db dabd d6fe 9cbc
00000040: 5f73 74bd 042f 82bd cc5a e3bd 5626 e0bd
00000050: 0e0b cebd 0fd4 eebd 173d 00be 1898 acbd
00000060: 3fef 72bd da51 0b3d 15bb 253d c65f eb3b
00000070: 7ae0 3b3d 413b 81bd 7053 83bd c48e 87bc
00000080: 7d73 ff3c ad1f c5bd 75c4 51bd 94c7 4fbd
00000090: 5cd2 2f3b 4133 6fbd c6d9 e9bd a343 96bd
000000a0: d6b3 cdbd 297a babc 2cec f8bc f763 213d
000000b0: f6c2 35bd ef13 9cbd 3404 b4bd 1588 95bd
000000c0: 2031 4ebd 2b6b 81bd 53bc 1cbb 5e76 a33a
000000d0: 93e6 7ebd a6d7 23bc 824c 75bd 52e8 e1bc
000000e0: 5478 a5bc c974 e4bc 3423 18bd f86d 213c
000000f0: 7987 8bbc 8703 8cbd f2f2 3dbd de48 923b
00000100: 7571 bebc c63a 60bd 69a0 5ebd e752 99bd
00000110: 2136 58bd 0870 86bd 8ec3 b3bd 078c cbbd
00000120: 03f1 14bd b312 71bd a48e 54bd fd0d b1bd
00000130: e6b5 86bd 6325 8ebc c7e0 dcbc a5e3 b03b
00000140: e7d8 4dbd 5375 f0bc 55ae b7bd 98a1 1cbd
00000150: 645d 57bd f88d eebc 6e9d 44bd d74b abbd
00000160: 3152 7fba 4ba1 45bd ebb4 2abd dff5 d8bc
00000170: 53f1 e4bb 8bc6 e6bd d560 6abd 6ac4 e1bd
00000180: 08e3 02bd 8808 063c c9dc 0dbd 570f 0abd
00000190: b9e6 49bd 9260 eebc 8c66 6c3b f29a d0bd
000001a0: 9689 a4bc d672 8cbb c2c9 04bc bb0a 88bd
000001b0: 1a6c 96bd d662 87bd 2ff0 97bd faed 3ebd
000001c0: c2e9 b2bd 294c f6bc 6ea8 8bbd bb3c eebd
000001d0: 761b e0bd f6f7 efbd caf7 3ebd 992d fbbd
000001e0: b0ee 99bd 7dfd f2bd 62ac ffbd 3995 73bd
000001f0: 8afa 2bbd 66a8 37bd 7c62 48bc 67a9 5f3b
00000200: d49f 67bc 8443 66bd f529 4fbb d380 44bd
00000210: 3fe4 34bd 22f5 3fbd e15e b6bd dfa8 07bd
00000220: fd2f a5bc d366 a6bc 119b e1bd f3e6 c9bd
00000230: 3c8c b3bd d5bc 92bd 05f2 b3bc 1d5e bcbd
00000240: b368 8cbd 473a 9dbd c8a8 79bd c539 95bd
00000250: f8eb 2cbd 83a8 2abd ad1b 36bd b271 b1bd
00000260: 08fc b2bd 4962 b7bd d6fa debd 7324 29bd
00000270: 19cc a6bd 0870 b6bd 450f 3cbd db91 fd3c
00000280: 157b dabc 2745 2dbd 9fe0 95bd d5eb d6bd
00000290: 73d3 6ebd c1d6 40bd a955 eabd c7cd 5cbd
000002a0: 9ffb a2bd 882a ddbd aede cfbd 599f debd
000002b0: 23d6 cfbd e69b d5bd e805 d7bd f58b d13b
000002c0: 7f15 4dbc 0bbf 85bc 48dd 43bd 0302 a9bd
000002d0: ecbd 9fbd d52c b8bc e182 243c a0c8 0abd
000002e0: 065f f9bc 3e28 efbd 4d21 2dbd 8228 81bd
000002f0: 6754 bebd b652 3cbd 5d20 7bbd 7786 f3bd
00000300: bb06 a3bd 8829 adbd 8be7 cbbd 4421 bfbd
00000310: 5648 b0bd e720 9dbd 775f f2bd b1bb d4bc
00000320: 551a 18bd ec65 6a3b fd8f 1d3c 2b54 4ebd
00000330: 7c8c c8bb 56b1 e5bb b8c1 bcbc d21d bcbc
00000340: b270 15bd 3a5c e8bd f878 b6bd ba91 80bd
00000350: 5357 05bd ca58 84bd 5181 babd 1b26 a2bd
00000360: aaf3 b4bd 06bd a9bc 8a73 e8bd e3de 82bd
00000370: ab7a b8bd 75a4 8cbd fd1f 12bd f455 b3bd
00000380: a684 36bd 131c 2fbd 0af6 7cbd 71c5 e5b9
00000390: da65 11bd b3ca 39bd fdf7 83bd fe25 9cbd
000003a0: 5b07 a3bd 5be1 4abd 6167 a5bd 45b0 b2bd
000003b0: e54a 01bd f30b 6fbd f721 ebbd 3568 93bd
000003c0: 2a51 d7bd 662e a9bd e7f2 a6bc a1d9 bfbd
000003d0: b28c 3dbd 9dc8 80bd 7a47 8fbd 05f4 85bc
000003e0: 6075 85bd df5a a4bd f1a5 52bd cf6e c3bc
000003f0: f8f6 7cbd fe6a 8abd 4e2e 33bd 5b95 4abd
-0.050574284 -0.029170208 -0.009948435 -0.03817008 -0.025499228 -0.030744154 -0.0036135549 -0.09463193
-0.07467667 -0.053245284 -0.050369 -0.08162232 -0.057142843 -0.08400525 -0.10686413 -0.019164484
-0.05968034 -0.06356624 -0.111013025 -0.10944812 -0.10060702 -0.11661541 -0.12523304 -0.08427447
-0.059310194 0.034013607 0.04046162 0.007183048 0.045868374 -0.0631013 -0.06412399 -0.016547568
0.031182999 -0.09625182 -0.051212747 -0.050727442 0.0026828265 -0.05839849 -0.1141849 -0.073371194
-0.100440666 -0.022763329 -0.030386053 0.039401975 -0.044375382 -0.076209895 -0.08789864 -0.07301346
-0.050339818 -0.06319269 -0.002391596 0.0012471189 -0.06223161 -0.010000145 -0.059887417 -0.0275766
-0.020198978 -0.027887719 -0.037142947 0.009852879 -0.017032372 -0.0683661 -0.04637427 0.004464253
-0.02324746 -0.05474355 -0.054352198 -0.074865155 -0.052785996 -0.06564337 -0.087775335 -0.099388175
-0.03636266 -0.058855724 -0.051893845 -0.08645246 -0.06577663 -0.017351812 -0.026962651 0.005398231
-0.050255682 -0.02935282 -0.08968798 -0.038240045 -0.0525793 -0.02912043 -0.0480017 -0.08364075
-0.00097397255 -0.048249524 -0.041676443 -0.026484428 -0.006986776 -0.11268338 -0.057221252 -0.11023791
-0.031954795 0.008180745 -0.034634385 -0.033706035 -0.0492923 -0.029098783 0.0036071865 -0.101858035
-0.020085137 -0.0042861504 -0.008104743 -0.06642672 -0.073448375 -0.06610648 -0.07418858 -0.04661367
-0.08735992 -0.030065613 -0.06819235 -0.11632677 -0.10942738 -0.11717217 -0.04662303 -0.122645564
-0.07516229 -0.11864755 -0.12484051 -0.05946848 -0.04198698 -0.04483833 -0.012230512 0.0034128071
-0.014137227 -0.05621673 -0.0031610702 -0.04797442 -0.044162985 -0.046864636 -0.089048155 -0.033120032
-0.020164484 -0.020312702 -0.11015905 -0.09858503 -0.08766982 -0.07164923 -0.02196599 -0.09197638
-0.06855907 -0.07677131 -0.060951978 -0.07286409 -0.042217225 -0.04166461 -0.044459987 -0.08664264
-0.087394774 -0.08954293 -0.10887687 -0.041294526 -0.08144397 -0.08908087 -0.045913 0.030953338
-0.026670018 -0.042302277 -0.07318234 -0.104942 -0.058307122 -0.047079805 -0.1144212 -0.053907182
-0.07958149 -0.10799128 -0.10149895 -0.10870237 -0.10148265 -0.10430126 -0.104991734 0.006394858
-0.012517332 -0.016326448 -0.047818452 -0.08252337 -0.077998966 -0.022482315 0.01004097 -0.033882737
-0.030440819 -0.116775975 -0.042268086 -0.063065544 -0.09293442 -0.045977317 -0.06131016 -0.118908815
-0.07960268 -0.08455187 -0.09956273 -0.09332517 -0.08607547 -0.07672291 -0.11834615 -0.025968404
-0.037134487 0.0035766317 0.009616849 -0.050373238 -0.0061202627 -0.0070096655 -0.023041591 -0.022963438
-0.036484428 -0.11345716 -0.08909792 -0.06277795 -0.032553982 -0.06462248 -0.091066964 -0.07917424
-0.08835538 -0.020720016 -0.11350162 -0.063901685 -0.09007772 -0.06867305 -0.035675038 -0.08756629
-0.044560097 -0.042751383 -0.06175808 -0.0004382539 -0.035497524 -0.045359325 -0.064437844 -0.07624434
-0.07960387 -0.049531322 -0.080763586 -0.08725027 -0.031565566 -0.058361005 -0.11481088 -0.0719761
-0.10513528 -0.08260803 -0.020379497 -0.09367681 -0.046276756 -0.06288264 -0.06996055 -0.01635171
-0.06516528 -0.08025145 -0.051427785 -0.023856549 -0.061758965 -0.067586884 -0.04374533 -0.049458843

conv2.0.bias f4 [32]
00000000: 6cf3 8fbd f237 8fbd 86ed 4ebe ed92 50bd
00000010: d5d1 55be 50ee 64be 0dda b9bc ccc9 12bd
00000020: 9e74 66bd 40f5 a4bd 9247 3abd f3f8 a1bd
00000030: 77bb afbe d335 2c3d 877e 20bd 49f0 19bc
00000040: 34ba b0be 4153 e8be 12c9 1cbd 0ca1 45bd
00000050: 86c7 3dbd d9be 83bd 49f5 2dbd 1e40 19bf
00000060: 0b8a 8dbd 8b12 b1bd e56c aabf fd81 9fbd
00000070: 0de3 92bd 6ad9 afbe c888 10bf 7ce2 98be
-0.07028851 -0.069930926 -0.20207796 -0.05092137 -0.20880826 -0.22356534 -0.022686983 -0.03583698
-0.05626356 -0.0805459 -0.04547841 -0.079088114 -0.34322712 0.04204352 -0.039183166 -0.009395667
-0.34517062 -0.45376018 -0.038277693 -0.04824929 -0.04633286 -0.06432886 -0.04247025 -0.5986346
-0.06911095 -0.08646115 -1.3314482 -0.07788465 -0.07172213 -0.3434556 -0.5645871 -0.29860294

out.weight f4 [10, 1568]
00000000: 4172 4fbd 847f 4abd 6fd0 2c3d 3d05 373d
00000010: cc10 a23d b6b5 85bd 2926 cdbb 8702 8c3d
00000020: 75a4 873d 5429 5c3d 6374 81bd ef16 853d
00000030: 4112 823d 6566 223d ad8e 8a3d 3a65 853d
00000040: f341 823d d710 c23d 153d e93c c7c8 b03d
00000050: 2f6b d73d 9385 143d 11de 633d 6258 0a3d
00000060: 9991 6abd 7ad3 dfbb 3be7 8e3d 8277 c83d
00000070: 0e5e 873d 9cd6 793d 1cbf 363d ee62 9dbd
00000080: a249 aebd a6bc 673d cd16 c53d 7351 373d
00000090: 3766 c13d 14bd b43d 4c89 58bd 4520 cebc
000000a0: 45a0 8c3d 2071 be3d 61e5 9ebc 1f5d c63d
000000b0: 2d71 9e3d 0cd1 c3bc 2427 25bc efbf 903c
000000c0: 6f3a 7ebc 17bc 72bd 120c 0e3d 0b75 893d
000000d0: 47b3 8c3d 85ae 413d 54f0 063d 2807 853d
000000e0: 33d9 5d3b 0c81 02bc 8871 7d3d cd6f c03d
000000f0: 20f0 8e3d e1df ba3d 243b 2dbd aefa 353d
00000100: 2221 b93d 1548 9dbd 0713 74bd 3109 d73c
00000110: e9ed 6cbd f90f 47bd e997 9a3d e896 e93c
00000120: c7d5 dabd 9964 62bd 8cb5 5d3d ade0 423d
00000130: b9a4 143c 00b5 b03d d903 d33d 9cd3 9dbd
00000140: 2a4f a4bd 7117 a23d 1d92 c23d 73cd a23c
00000150: 6f35 983d fb2a c23d 3964 58bd 5e67 c2bd
00000160: 5ceb a73d 340c 99bd c62b 003a e4fa ec3c
00000170: f710 843d 4c19 0bbd 815d b0bc 2d5f 403d
00000180: 45bc 65bd 720c 083a 5fde c5bd 47e1 b3bf
00000190: a472 c5be a998 f0bd b002 f83d 0588 dabb
000001a0: 6a30 bfbe c99b 29bf 1455 bdbe edc7 0bbf
000001b0: a8ba 28be ab75 a4be 41ad 533e 1aea ccbf
000001c0: ea3f f13e 2f93 cd3d abd1 61be 037c afbe
000001d0: a571 833e a7b7 283f 9d05 95be 919f 633d
000001e0: 24c6 57bf 6417 8fbe d93c 29bf 5d15 4ebe
000001f0: bdb5 e73e bd2f 903e b61e 98bf df44 debe
00000200: bc8c 72be e1f5 44be 9f92 f4be b192 76bf
00000210: 33f8 e2bf fbaa e2bf b5cc a7bf 44ab 9abe
00000220: f89b 9b3e fcb4 803e 55f2 dcbf 2709 09c0
00000230: 97c0 babf add7 00c0 af4f 5f3f ac27 093f
00000240: 099d 293e d925 c6bf ab41 99bf 7a58 88bd
00000250: fce9 dabc 244d 8abd 52a1 bbbd f170 c2bd
00000260: d586 a1bd df73 63bd 7c18 71bd a570 67bd
00000270: 601a 3dbd caf0 19bc 47e5 78bd 83e2 86bd
00000280: ba15 d5bc 7e19 c0bd 96b8 e7bc 45b1 d9bc
00000290: 3a58 babb d656 b0bd ffd0 2ebd fe8d 89bb
000002a0: 7e95 b6bd 10f8 7cbd dc1d 88bd 4542 80bd
000002b0: 6add 7ebd e020 27bd aee9 bebc 34fe 613c
000002c0: 6a2e 95bd 122c e1bd 623e 50bd 5ca6 a5bc
000002d0: 8d6a 10bd b377 58bd a983 d13d 0359 9b3d
000002e0: f74e c0bd fb82 65bd 27d3 45bd 4d06 a3bd
000002f0: 9d01 2abd de13 b8bc 24d1 2ebc 3fe7 41bd
00000300: e1ff 5dbd aeb1 9abd 2992 9fbd 0a17 4abc
00000310: 6495 593d 0813 5f3d 4999 4d3d 9b05 443d
00000320: 5816 a63d da6d 793d b2d4 6c3d dddc 463d
00000330: c627 a83d 17fe 423d 6aa5 a63d db44 5e3d
00000340: f0b6 93bd b044 aabd 7725 883d 06c7 5bbd
00000350: 506a 8a3d 57eb 5cbd be31 94bd 249b 97bd
00000360: c848 adbd ca68 9c3d 68f6 4c3d c3ef a1bd
00000370: db4d 423d 3d04 8d3d 0f68 a9bd a7cb 7cbd
00000380: 9336 613d 29c4 85bd b4be 8bbd 28b6 763d
00000390: b2fa 81be da14 a4bd bb1f 6a3d 242b 993d
000003a0: 0ad1 7ebd c805 22bd 2b85 903d 94ff 4abd
000003b0: 4449 77bd d5b2 513d 1b87 103d 034c 953d
000003c0: 6032 78bd 2281 7dbd 702b 6dbd f29c 7bbd
000003d0: f745 70bd 0b1a 723c 285b 94be 3be1 403e
000003e0: a727 b43e 44f4 8d3e f85d d93d 782d 44bc
000003f0: 89b4 a23d 57d4 53bd 81a8 8a3d 7bd1 703d
-0.05064607 -0.049438015 0.042190965 0.04468273 0.0791336 -0.06528799 -0.0062606526 0.068364196
0.066231646 0.05375035 -0.06321027 0.06498515 0.06351138 0.039648432 0.067654945 0.06513448
0.06360235 0.09475868 0.028471509 0.08632045 0.105184905 0.0362602 0.0556317 0.033775695
-0.05726776 -0.00683063 0.069776975 0.09788419 0.066097364 0.060995683 0.04461585 -0.07684885
-0.08510138 0.056576394 0.096234895 0.04475541 0.09443324 0.08825126 -0.05286531 -0.025161872
0.068665065 0.09298921 -0.019396486 0.0968573 0.0773643 -0.023903392 -0.010080133 0.017669646
-0.015516861 -0.059261408 0.03467948 0.06711777 0.06870132 0.047285575 0.03294404 0.064955056
0.0033851385 -0.0079653375 0.06187585 0.09396324 0.06979394 0.09124733 -0.04229273 0.04442852
0.09039523 -0.07679764 -0.05958846 0.0262495 -0.057844076 -0.048599217 0.07548506 0.02851434
-0.10685306 -0.05527172 0.054128215 0.04757755 0.009072476 0.08628273 0.10303468 -0.07706377
-0.08022912 0.07914627 0.09500525 0.019873356 0.07432067 0.09480854 -0.052829955 -0.09492372
0.08199188 -0.07473031 0.0004889335 0.028928228 0.06448548 -0.03395967 -0.021528961 0.046965767
-0.05608775 0.0005189843 -0.096615545 -1.4053124 -0.38564026 -0.117478676 0.121098876 -0.006669047
-0.37341624 -0.66253334 -0.36978972 -0.5460194 -0.16477454 -0.32121024 0.2067156 -1.6008942
0.47119075 0.10037839 -0.22052638 -0.342743 0.2567264 0.6590523 -0.29105845 0.055572096
-0.84286714 -0.27947533 -0.6610847 -0.20125337 0.45255843 0.2816142 -1.1884372 -0.4341192
-0.23686498 -0.1923442 -0.47768113 -0.96317583 -1.7731994 -1.7708429 -1.3109347 -0.3020879
0.30392432 0.2513808 -1.7261454 -2.1411836 -1.4590024 -2.0131638 0.8723096 0.5357616
0.1656381 -1.54803 -1.1973165 -0.066575006 -0.0267229 -0.06752995 -0.09161629 -0.09494198
-0.07887045 -0.055530425 -0.05886124 -0.05650391 -0.04616773 -0.0093957875 -0.06076553 -0.065861724
-0.026011337 -0.09379862 -0.02828626 -0.026573787 -0.005686787 -0.08610313 -0.042679783 -0.004197835
-0.08915232 -0.06176001 -0.0664632 -0.0626264 -0.062222876 -0.040802836 -0.023304787 0.013793517
-0.072842434 -0.10994734 -0.050840743 -0.020220928 -0.035257865 -0.05284853 0.1023019 0.07585337
-0.09390061 -0.056033116 -0.048297074 -0.07960186 -0.041505445 -0.02247041 -0.01066998 -0.047339674
-0.054199103 -0.07553421 -0.0779155 -0.0123345945 0.053120986 0.05446151 0.050195012 0.04785691
0.081097305 0.06089578 0.05782003 0.048550475 0.08210711 0.0476056 0.08137019 0.054264884
-0.07212627 -0.08313882 0.06647771 -0.0536566 0.06758559 -0.053935375 -0.0723605 -0.074026376
-0.084611475 0.076371744 0.05003968 -0.07907059 0.04743753 0.06885574 -0.08271801 -0.061717656
0.054983687 -0.06531555 -0.06823483 0.06023231 -0.25386578 -0.080117896 0.057159167 0.074789315
-0.062211074 -0.039556295 0.0705665 -0.049560145 -0.060372606 0.05119594 0.035285097 0.07289889
-0.060594916 -0.06189073 -0.057902753 -0.06142897 -0.058660474 0.014776717 -0.28975797 0.18835919
0.35186502 0.27725422 0.10613626 -0.011973731 0.079445906 -0.051716175 0.06770421 0.058793526

out.bias f4 [10]
00000000: 35ef 0e3f 3746 4e3f 8ae5 823f 4d3c b03e
00000010: 0c95 efbf d70b 5f3e 39a3 46bd 952f c63e
00000020: cbb0 03bf ea04 17bf
0.5583375 0.8057589 1.02263 0.34421006 -1.871736 0.2178186 -0.048495505 0.38708177
-0.5144164 -0.58991873
